artifacts/item_bias.npy (npy, 13584 bytes, 1 tensors)

array f8 [1682]
00000000: eeb5 3ed7 c3e9 dc3f 1fae bc75 fda6 e53f
00000010: 7da2 a94b 389b f0bf 7676 d96e c93b b03f
00000020: ab25 6da9 3770 be3f b021 34d1 3fd2 e63f
00000030: 52dc 30dd 7329 dd3f 8e04 d322 ff9a 95bf
00000040: 7b11 e772 39c8 b5bf 8f53 afc4 b84e d43f
00000050: 0c10 908d 77aa d33f c82f 41c5 e92b d4bf
00000060: 202e cdf0 626e b83f b996 44c0 0a5f e3bf
00000070: 9ecc 9ee9 560d e8bf 895a 1aa9 bd94 ccbf
00000080: 8c1e 610f 2d13 a53f 9ca0 0b39 d170 abbf
00000090: 5180 98e0 4045 c8bf bf7f 749d b107 eabf
000000a0: 0c0c de2f c630 c53f b8d1 dba5 7186 d93f
000000b0: 03d2 3af4 de76 d83f 488c 52f8 04ca d6bf
000000c0: 7e16 7e7f dac8 dc3f d3e4 42ca 5066 dbbf
000000d0: 0083 afda 46b8 d43f 0af7 e159 16e0 dbbf
000000e0: 1d85 9bba d783 c03f 737a bdc8 1782 d23f
000000f0: c9c3 5f40 cf6d d53f b8b1 7368 c2bd eb3f
00000100: 5c14 b0f9 7653 e03f 195d d080 852a 9a3f
00000110: 2ef4 17fd 2067 e33f 5699 fb88 ff7c d2bf
00000120: 006e 9a0f 21e5 ed3f b11b e2ae 7464 e1bf
00000130: bceb f18d deaf 8a3f 7332 8fce ff95 b8bf
00000140: e2a2 3c7d 657e a03f 1539 242f a9bb 96bf
00000150: 02dd 3f28 5171 f5bf 3c2f a5f2 5f65 78bf
00000160: 02ee b7c5 a111 9f3f d368 354b 5c52 e53f
00000170: 02f5 665e 340f c33f 88ba 54ce db57 b33f
00000180: 1430 0f6a a3ee a8bf 41b6 07d0 a0c2 e33f
00000190: ce29 49d4 270c db3f 3748 20d4 828e dabf
000001a0: 4a05 bd65 e239 e03f baa4 d5e4 65c0 e03f
000001b0: 4a28 b2b2 1688 d3bf c296 66fe f20e e6bf
000001c0: 262f 420b d9b9 d93f ea6a 88bc 3cb5 d83f
000001d0: e02e 0dce dd19 ed3f fb23 4225 c5f8 c5bf
000001e0: 2b68 bb99 3b82 bdbf b9db 3b63 0969 d7bf
000001f0: cd39 7826 7ed3 dd3f 7ae8 3ddb 699b b93f
00000200: fe76 9541 9897 b4bf 1719 7099 34d3 c2bf
00000210: 632f 459c a4d2 e93f 2c22 5c4e ec50 e43f
00000220: 9c6d 6947 4647 cd3f a08b 50e0 1674 f2bf
00000230: d530 37cb cce9 c73f b334 573d 8a29 e03f
00000240: dd6c 22b4 8826 80bf 795f 3b41 7d5b d13f
00000250: 21c5 6449 e3db e7bf 676c e1b7 79da 90bf
00000260: e25f b668 57df d6bf 1a36 a997 ccca c33f
00000270: d13c b89c efae ec3f 3e0e b994 fc80 cfbf
00000280: badc d49f 3bd9 b7bf 0315 bab2 ef34 c73f
00000290: 9566 ade2 27ef b23f d907 cad0 263e 9e3f
000002a0: 2ce9 302e a785 ab3f 30f3 232c b093 e9bf
000002b0: 22db f460 830f a6bf 7d37 b470 f6f1 9bbf
000002c0: 5488 b1af 1960 cf3f 192a d814 9c22 dd3f
000002d0: 70ac 692b 88c3 c63f 520f 913f 2c58 e63f
000002e0: 44d1 e723 d826 6fbf c5ba 8c4d 4c83 c93f
000002f0: c080 e5c2 c867 d93f 31a3 872a 4b02 d3bf
00000300: 7b5d da8c c2b7 e13f 036f 3e11 6884 cabf
00000310: ae23 7e8f 1ee3 9d3f bffd d106 dfee e53f
00000320: 9c29 fb30 eb63 e33f 346f 90f6 cbcb ec3f
00000330: 120b 8411 fbc8 df3f 8b75 5a20 05a3 cb3f
00000340: 3dbf aab6 7185 a33f 9f0f 89d0 436e e43f
00000350: 1910 d609 2716 ebbf b8ce fd0d 97ce ecbf
00000360: a120 7f7c 777b d03f 93b2 1532 51da 93bf
00000370: 78e3 fc7b 0cb4 d03f 0c23 1068 7c32 dd3f
00000380: 00e8 ff96 d672 db3f bfed dba2 e979 da3f
00000390: 492b 0749 c120 9b3f 9a36 4b22 abfe ce3f
000003a0: 5016 251d 3c41 e5bf 4164 9736 6e34 d8bf
000003b0: 0c5e 69fb 7130 db3f f863 7130 3f49 d73f
000003c0: 15b1 9b8a 3fbd c33f 770a 0670 562e acbf
000003d0: 46d6 b158 9049 debf 2482 2ad1 c179 dbbf
000003e0: 814e da32 831d d1bf 6817 83fc dc6c e73f
000003f0: 8f3d 296a 3dad fbbf 98c2 0d76 1f07 a3bf
00000400: 5bb9 4836 8ec6 c1bf 9c8a b739 fb9e da3f
00000410: 5e9f 522b 4dd3 ea3f 57f9 3a9d e364 e3bf
00000420: 2ca3 2a52 9c2c ab3f 8af4 db05 d8d8 ce3f
00000430: 6a70 f18b f7e6 c2bf 6884 5ddf 8828 cc3f
00000440: a6e9 d956 90d5 c2bf ea13 4d48 1baf d13f
00000450: 7f4d 5545 4e2f c23f 58a2 a1d5 ed68 d03f
00000460: 8324 d046 0720 c93f 1791 bed5 a86f a5bf
00000470: 9ed4 494b d789 d5bf 7a52 8703 09a9 83bf
00000480: 9143 f112 dee2 e2bf 9cf4 06a6 c791 d93f
00000490: f70c 1f2a 768a e4bf 57d7 1656 3867 cdbf
000004a0: a017 a313 74de bd3f 51c2 9114 169b f7bf
000004b0: 6fcd ac1f afe0 c83f ef31 289c a9b3 cabf
000004c0: a94a 7c87 f32c c93f 3d98 4e6a 5bec d23f
000004d0: 0d5c bb98 facf d53f 3c9b 89ee ce3f cdbf
000004e0: e896 5f9f 1fc6 e33f 6aee e320 35d3 d23f
000004f0: fc2c 03fc cdaf d8bf 3be8 9822 f3cd c9bf
00000500: 72fe 9ec1 e9a8 b53f 283b 9150 b30d e83f
00000510: e4fe 6241 4486 d8bf 54ee d359 498d ebbf
00000520: e8ee 63fb 758f c1bf f65a 77b1 36d6 ecbf
00000530: 0f31 2a94 79d3 e03f f233 2a41 4a65 f3bf
00000540: ca03 3f7b 1f6c ebbf 105b a9c0 4bf3 d63f
00000550: b32a af9d b534 e53f d690 558e bb3f 8c3f
00000560: c4a8 2fca 0f5b b9bf 5a26 fd6c 9cc3 debf
00000570: 4193 2767 cf00 f03f caaf eaef ae94 d8bf
00000580: 1002 5d8e 743e d5bf a1b9 0e15 11ea c8bf
00000590: acde a639 b47e e1bf 6bcb 688e f5f4 d43f
000005a0: fb02 55b7 ee60 ed3f 2066 d0ea 213c e3bf
000005b0: 14f0 0bdd f210 cf3f da22 4b48 116e c13f
000005c0: 773b 8746 7287 c73f 791f 29d1 f7fb eb3f
000005d0: 6390 f954 01d4 e43f ed65 9a77 a9d3 f3bf
000005e0: caa8 2180 3e2a d63f edb2 8f04 e28f ea3f
000005f0: 9942 609d ede5 e0bf 50b0 2d58 42b5 d73f
00000600: 308e b957 98c8 dcbf afaf 9b31 3791 e4bf
00000610: abbb 51df 2a6c e5bf d6eb b668 b537 c0bf
00000620: 5528 05df 5b7e dbbf 6ae8 7c15 710f e6bf
00000630: 9e60 f6d0 627c ccbf 15c0 743f e729 c93f
00000640: a7e8 ab93 960e f13f d99a 3d8e 0b3f c73f
00000650: 4e09 cbef b32e d4bf 6e66 2350 fc0e b03f
00000660: 86b3 29c0 cb29 c33f 8fce 6795 a53f e4bf
00000670: 05c4 1be7 f9e4 cfbf 6d0b 2ff9 a949 dc3f
00000680: 6c83 a882 1973 c8bf 90f7 f08d a403 d63f
00000690: 9ca1 c630 dfa6 b7bf ae02 2f46 3a79 b33f
000006a0: af9a b23c ca49 e5bf fee1 9437 4a4d d6bf
000006b0: 6293 82ac 7c9b d23f 909c 632e 621f e8bf
000006c0: 4721 e6b4 e70c e43f 0b0c ad3c a20b e73f
000006d0: 5250 957a 471b 9f3f 32ef 5184 c968 dabf
000006e0: 1adf d28b 064f da3f 134d 7428 53fd da3f
000006f0: 2604 2a82 e0ba d23f 9d29 431f df69 d4bf
00000700: d0e7 f5e1 4dca d9bf 57d1 b8c0 7f00 db3f
00000710: 90a3 7be8 870a c53f a8f1 93fe d7f3 8cbf
00000720: 5eb7 ddcb afbd debf 76d0 5390 ac3b d23f
00000730: dcdf 901f 736e e73f 5e77 2dfb 1d64 cf3f
00000740: b874 646f b972 c63f ac45 2d33 e2ee d7bf
00000750: 9d7b 9512 e81f c4bf 9b9a 850c ca44 e33f
00000760: 18e7 d141 ed67 e53f 744c 1df7 67f3 e8bf
00000770: 4525 4ab7 fc7c dd3f ebe4 a85c 0640 f03f
00000780: 2ed5 e8a2 8b21 ec3f 5c6b d820 8b96 e63f
00000790: 8bd1 da50 5cd2 b33f a3a1 9251 a45f cf3f
000007a0: a188 d73d 760e c83f c055 0c97 bf63 cabf
000007b0: 9e94 615f 895d e4bf 2e84 4db4 5050 d73f
000007c0: 3022 1e2c 8724 dbbf b491 3cef 36b1 c03f
000007d0: ced3 2890 ea6e 5e3f 3b82 4c43 a38f d1bf
000007e0: f5a2 36f2 25ba d7bf b108 6705 0d51 d0bf
000007f0: 3930 1e39 b11f e93f 5cfb aa24 8186 bbbf
0.4517678834916684 0.6766345309783367 -1.0378954845020012 0.06341227489743936 0.11889980207811017 0.7131651960381102 0.4556550655428896 -0.021099077702051043
-0.08508643203010095 0.31730479438311304 0.3072794802139931 -0.3151802469553755 0.09543436411802775 -0.6053518061859996 -0.7516283572098421 -0.22328921086291967
0.04116192639099578 -0.05359510251383989 -0.18961344687068274 -0.8134391856474322 0.1655509694793128 0.39883080670486093 0.38225530481875597 -0.3560802865051227
0.4497591252369161 -0.4281198477943466 0.3237473617173663 -0.43555220391850524 0.12902351962751704 0.28919024089365236 0.33482724463015906 0.8669139900280731
0.5101885678019573 0.02555283163755204 0.6063389724000723 -0.28887928368785276 0.9342198662520218 -0.543512670105761 0.013030756670778014 -0.09603880684807979
0.032214328324988065 -0.02220024442890985 -1.3401652881855743 -0.005956053539488523 0.03034069794919781 0.6663037747305459 0.14890150651437045 0.07555936610581615
-0.04869566602391742 0.6175083220566152 0.4226169179061373 -0.4149481841606106 0.5070659625127203 0.5234860867905333 -0.3051811928822913 -0.6893248528255855
0.40196825122324 0.3860618439809246 0.9094075226252833 -0.1716543609548181 -0.11526844504570082 -0.36578592959216 0.4660334945373535 0.10002767183860498
-0.08043815232437265 -0.14707047931751369 0.8069632579949765 0.6348783045260169 0.22873762595086766 -1.1533421289720778 0.18682250902782607 0.5050708005961922
-0.007885997769611236 0.27120906229310254 -0.7455917771787065 -0.01645841774766801 -0.3573816797811543 0.15462644009896637 0.8963544903689585 -0.24612385999545155
-0.09315846111427364 0.1813029883088931 0.07396172794451623 0.02953396462772404 0.05375406683784187 -0.7992783414953006 -0.043087106309420045 -0.02729020178690388
0.24512024954589384 0.455237408023693 0.1778421604134084 0.6982632867370546 -0.003802702092111117 0.19931939875228558 0.3969594863210766 -0.297014991314927
0.5536816359553279 -0.2071657261084213 0.029186704166508974 0.6854090817650372 0.6059471089040929 0.8998775306422204 0.4966418906262088 0.2159124763465282
0.03812747340032139 0.6384600708920408 -0.8464541618454887 -0.9002185128469682 0.25753581197614933 -0.01938750141327945 0.2609893046206291 0.45620641863256206
0.42888417001779544 0.4136909571095337 0.02649213798739972 0.24214686560155912 -0.6642132348285461 -0.3782001050108797 0.42483186294472897 0.3638456318927292
0.15421289699532595 -0.05504102818942596 -0.47323998128499445 -0.4293064634930792 -0.267426299725436 0.732038968265198 -1.7297948977392001 -0.03716371837697813
-0.13887193346586 0.4159534515039611 0.8382936330935811 -0.6060655661492927 0.05307472708711311 0.24099254880994564 -0.14767355282936317 0.2199870196009528
-0.1471424507215719 0.2763126569810185 0.14206865678225353 0.2564043604129771 0.1962899299399262 -0.04186751946625316 -0.33653814651854386 -0.009599752826866526
-0.5901937837571599 0.3995226975783426 -0.6419020483666874 -0.2297125263555084 0.11667561988278274 -1.4753628543368402 0.19435681387549716 -0.20860786557058428
0.1966843043852198 0.29567609197181693 0.3408190242311669 -0.2285097756132134 0.617935000682988 0.294141084784974 -0.3857302628573078 -0.2015975874836061
0.08460865952565103 0.7516724179821255 -0.3831949842969904 -0.8609968904924679 -0.13719057822151304 -0.9011491266381586 0.5258148092121092 -1.2122290177824167
-0.8569486052657507 0.35859960379222944 0.6626842574854294 0.013793435364910438 -0.09904574094949498 -0.48068915027088155 1.000197794864292 -0.38407491139764416
-0.3319369688288427 -0.19464314964484422 -0.5467167974483877 0.327451123305926 0.9180825787262558 -0.6010903917514874 0.24270473283093053 0.1361714938159569
0.18382099574816 0.8745078168076211 0.6508795413651679 -1.239175288390807 0.3463283778461458 0.8300638283813818 -0.5280674051046673 0.37043818103007187
-0.4497433525741341 -0.6427265137585801 -0.6694540368751992 -0.12670009243978936 -0.42958733348189543 -0.6893849773107494 -0.22254595950358164 0.19659128759803993
1.066061570016737 0.18161148496002147 -0.31535051743789644 0.06272866207600611 0.14971300967172513 -0.6327693861080251 -0.24917529854386103 0.4419960912165866
-0.19101256255910515 0.34397233830883867 -0.09239001217668491 0.0760685368868603 -0.6652575669766828 -0.3484674017704775 0.2907401737850731 -0.7538309961354503
0.6265753300840878 0.7201701340749208 0.030377499443901286 -0.4126457016170547 0.4110733380762085 0.42171172094931925 0.2926560660490075 -0.3189618878647254
-0.40297267023526917 0.4219054586458432 0.1643838772936559 -0.014136970001793994 -0.48032755764767454 0.28489221662972086 0.7322326294442933 0.24524283184558276
0.17537610949594806 -0.3739552974485274 -0.1572237101308617 0.6021471256797953 0.6689363751931721 -0.7797126604513225 0.4607536115587048 1.0156310672303401
0.8790949041200855 0.7058768884192932 0.07742859815591012 0.24510625823064655 0.18794134158730905 -0.20616907954597075 -0.6364180434144548 0.3642770539063943
-0.4241044932209972 0.13040816003298306 0.0018574991851327718 -0.27439195224909313 -0.37073658612875643 -0.2549469521292265 0.7851186862549248 -0.1075211252709613
