artifacts/user_bias.npy (npy, 7672 bytes, 1 tensors)

array f8 [943]
0	0xbfbca674e7fe9615	-0.11191492713859248
1	0xbfc07fedae61a02e	-0.12890406622614264
2	0xbfcaecb5ecadecfd	-0.21034883553134157
3	0x3f9e3516a5a2937f	0.02949939142185398
4	0x3fc0d5782be8a73e	0.13151456970200032
5	0xbfa84faf74ae4206	-0.04748295115780725
6	0xbfc66bda964c1e73	-0.17516643847214972
7	0x3fbc709b9d5ea60f	0.1110932597354337
8	0xbfe05cfea1d5ae4f	-0.5113518868287857
9	0xbfe0ae97bdd30adb	-0.5213125903613575
10	0xbfd6cd37e32dd290	-0.35627553163002634
11	0x3fc156003281ec36	0.13543703523814238
12	0x3fda710563e16aa5	0.41314825777014114
13	0x3fc4c7dc5580068f	0.16234926390466284
14	0xbfe7ad437d719379	-0.7399003458091179
15	0xbfb495c046fece9c	-0.08041002019200011
16	0x3fba26c794eb0fce	0.10215422998140797
17	0xbfe54b801db204e1	-0.6654663639057184
18	0x3fcf843c01d093a6	0.24622297371493324
19	0xbfe684727c8c7edc	-0.7036678726762733
20	0x3fdc52b48b91ca7f	0.4425479281409607
21	0xbfdc4974466d9c7e	-0.4419832885527696
22	0xbfcb96e2ba5bad39	-0.21554216479794677
23	0x3faa66a092aa37a9	0.05156423368781244
24	0xbfcdfe1a898c2356	-0.23431712833578427
25	0x3f9ef5a1d58d4192	0.030233887347380035
26	0xbfec6a70bf3aeae8	-0.8879932150806242
27	0xbfe1e3ed1b4906ac	-0.5590730221667477
28	0xbfa72653909e07e6	-0.045214282420616134
29	0xbfbc531c40777b8a	-0.11064316343207117
30	0xbfb4a53fb4e961c1	-0.08064649740970876
31	0x3fd970dae257a5a5	0.3975131235480041
32	0xbfe1b21148fd4aa4	-0.5529867578100789
33	0xbfbd86ec4d9cb9da	-0.115340012501043
34	0x3fd82b3f6ea17130	0.3776396351220397
35	0xbffa08436a4c0b18	-1.627017417166547
36	0x3fd71760bf72d35d	0.36080187507768874
37	0x3fa052e197226b14	0.031882333468464946
38	0x3fd20ac60a8dd7a3	0.28190756827040725
39	0x3fd3a23fbe5834f6	0.30677789295516733
40	0xbfb03e2f49600194	-0.06344886342413353
41	0xbfe3f79a0141f2ed	-0.62397480245235
42	0x3fd9bad8a84da334	0.4020291942202221
43	0xbfde4c81820a310c	-0.4734195489807156
44	0x3fe914263b10eb09	0.783709636081171
45	0x3fd743fff5a68b29	0.36352538098633375
46	0xbfcd2c58238add4c	-0.22791578040571847
47	0xbfb286e38306650e	-0.07237073849536932
48	0x3f950306f807c20b	0.020519360436027905
49	0xbfce1ffd7d7e5c17	-0.23535126330963926
50	0x3fea2ebc1fbb4f55	0.8182049388656006
51	0x3fb8d055f7800489	0.09692895214540632
52	0x3fc3d955f82427ae	0.15507006279250163
53	0x3fb770f2f595f215	0.0915672158789181
54	0x3fbc60d2c6504fdd	0.11085240689891358
55	0xbfd270af00c48957	-0.28812766146633834
56	0x3fcfb9b5f5da1317	0.2478549433182244
57	0xbfdfa38f6876e90d	-0.49435792161570263
58	0xbfd60aefcea60aab	-0.3444175260594117
59	0x3fcee2d2a0bf72d6	0.24129708146110457
60	0x3fd7820166a578bf	0.3673099043279641
61	0xbfb2adc7b7c6c82f	-0.07296417462092174
62	0xbfe39f0464005047	-0.6131612733029294
63	0xbfb3d93072124367	-0.07753279480881546
64	0xbfc1b43c0ebe14a8	-0.13831282348488583
65	0xbfc60769ee9ab68d	-0.17210125113108568
66	0xbfc7a16d21cb0766	-0.18461383962681593
67	0xbfe36e7136ce2555	-0.6072317190566233
68	0xbfe492c8e56efdcf	-0.6429180604099488
69	0x3fe147d8069281be	0.5400200012555201
70	0xbfe0c87de6c40e46	-0.5244740969796531
71	0x3fd66476b7640b9b	0.34988181981332794
72	0xbfc69ed4d23c08f2	-0.17672214761120802
73	0x3fc36a3fd71ab5a0	0.15167997363225272
74	0xbfa06aa8ced98969	-0.032063746690954194
75	0xbfd4afec880e49f9	-0.32323754584027103
76	0xbfb3160877c2317c	-0.07455494807999757
77	0xbfcc22b2908e6542	-0.2198088842240314
78	0xbfc170866bbe299c	-0.13624649296646119
79	0xbfdb1a3eb15646e8	-0.4234768611723738
80	0x3fcd3c9445a1ddfe	0.22841123008741698
81	0xbfcf0e8221ba49d5	-0.24263025900707072
82	0x3fd548cbfd904515	0.33256816637101966
83	0xbfda867e7cf130d3	-0.4144588680399128
84	0xbfce976fa8556ed6	-0.23899646491451304
85	0xbfe1311da0020f3a	-0.5372455716282964
86	0xbfcb997cf5007959	-0.21562158549290691
87	0xbfe0d32bf3487c90	-0.5257777930854832
88	0xbfd11d092913acc3	-0.26739720355426416
89	0x3f9826ab0c84df37	0.02358500732336141
90	0x3fc611d753d14219	0.1724194678559037
91	0xbfb014b5fc403847	-0.06281602295368414
92	0xbfc602017deb23ad	-0.17193621300091647
93	0x3fcddc2dd5f66999	0.2332818312396057
94	0xbfbd60045cbb4528	-0.11474635375931952
95	0xbfe16c4f80ee67ac	-0.5444715040387016
96	0xbfd72b49090ffc55	-0.3620169247150831
97	0x3fc0b92740387c82	0.13065043102048796
98	0xbfbe9f364e8410f6	-0.11961688439265913
99	0x3fd3f06aff61fcd7	0.3115489477131183
100	0xbfe95a1d6a186973	-0.7922503540205937
101	0x3fcff9550509d7c0	0.24979651208894715
102	0xbfd7122b918876ec	-0.3604840203496298
103	0x3fdca3d9d81e2f2d	0.44750066857590093
104	0xbfc5d710dbac06c1	-0.1706257889382439
105	0xbfe84b787cac2f47	-0.7592127261172913
106	0xbfe07c5d087afade	-0.515181080401671
107	0xbfe1728d85bb75ca	-0.5452334987600633
108	0xbfe360398f952c16	-0.6054961971616446
109	0x3f9d219d978dced2	0.02844854581367324
110	0xbfe1173ba1d4bba6	-0.5340860520135393
111	0xbfe04725688571f7	-0.5086848298483905
112	0xbfb554c34fa955c1	-0.08332462973461131
113	0xbfd86c6d57befaa4	-0.38161786621996385
114	0xbfac595d7e902ebd	-0.0553693024631605
115	0xbfde0e752d9419cd	-0.46963242960955826
116	0x3fe48d4f4392cc4c	0.6422497100633193
117	0x3fe06839591b1ae8	0.5127226581906514
118	0xbfbeba7d84cca64b	-0.1200331162659946
119	0xbfb5616738db48a0	-0.08351750505542777
120	0xbfdd3c9adee6d3d7	-0.45682403342953876
121	0xbfd8e5b4b41c4172	-0.38902013386634515
122	0xbf8085e1e17f5e28	-0.008067860311640265
123	0x3fdcd835b7b6085e	0.4506964010289546
124	0xbff3ae094d1b061f	-1.2299893390594503
125	0x3fa526f2b4179462	0.04131277511968602
126	0xbfcf344e718d5fcc	-0.2437837652639686
127	0xbfd133bd87737d53	-0.2687829802288963
128	0x3fbbd6509db89899	0.10873893595325725
129	0x3fa85bcf6202c8d8	0.04757545539304581
130	0xbfba8d128fab45ce	-0.10371509559197209
131	0x3fd5263304da2b07	0.3304564998040153
132	0xbfbfdb0dad298bff	-0.12443623998255758
133	0x3fa5c353ff69c63f	0.04250586026035962
134	0xbfe781b64ce72e6f	-0.7345839979183902
135	0x3fe69199b9e8b32b	0.7052734976801721
136	0xbfd35018a6166000	-0.3017636892268456
137	0x3fc210dee4db0eca	0.14113985228151754
138	0x3fe73ec57562b5b2	0.7264125149428564
139	0x3fdec82f85c62d5c	0.4809683615100846
140	0xbf4caa30e9c4dc80	-0.0008747805436887385
141	0xbfca642fcc90bcd6	-0.20618245590728773
142	0xbfe2100c5d6d3c1f	-0.5644590210666854
143	0xbfcc8bcd8e8c3366	-0.22301644764265943
144	0xbfd1edfd70131ba1	-0.2801507563094053
145	0xbf9be2eb900a9f6f	-0.027232819239230318
146	0x3fd25b1af42c62ec	0.2868106255059917
147	0xbfe534687d633f82	-0.6626474808672216
148	0x3fadbfbaeb9b295e	0.05810341001559281
149	0xbfd3b545f48d8ebe	-0.3079390419208997
150	0xbfd9498f4124a048	-0.39511472093227384
151	0x3fd2b1f15dfa4512	0.29211076905728917
152	0xbfeaa53bee7c223b	-0.8326701791675711
153	0xbfc9ee9202ef9951	-0.20259308951717483
154	0x3fd1aefe823ccdba	0.2763057967997288
155	0x3fd0473a9f6fb807	0.2543474728580581
156	0xbfd5a0a2b04360a5	-0.33792941296770557
157	0xbfdc9cc3e72d2226	-0.44706819129763387
158	0x3fea9eca2bf54f62	0.8318835123595643
159	0xbf97ee95d2b549f2	-0.023371067987065737
160	0x3fdf28e38b6207c1	0.48687065707792604
161	0xbfe4bdfbd6b715a4	-0.6481913751273862
162	0xbfc01abf9bd1a139	-0.12581629856436807
163	0x3fb40604e823ca51	0.07821684520221452
164	0xbfd1afa8e7fbc3bc	-0.27634642271646803
165	0xbfced9327b7ed49b	-0.2410033324246442
166	0xbfb256bf36e3a2b4	-0.07163615312641519
167	0xbfe8663b2300da34	-0.7624793704661159
168	0x3fc69e58ca8f1ec8	0.1767073620851447
169	0xbfb1d12b7c0ac81f	-0.06959792879459357
170	0xbfc863ff3c839f26	-0.19055166678230612
171	0xbfd9bd0441d09a43	-0.40216165950042554
172	0xbfc1823468d744fb	-0.13678603285965338
173	0xbfd60335c26326c5	-0.3439459226907327
174	0xbfafa7ed41516763	-0.06182805464113874
175	0xbfd1814b26417ba2	-0.273516452178166
176	0xbfd4f9a383b38152	-0.3277367387909368
177	0xbfb5e4368d5e452b	-0.08551350547192686
178	0x3fc35581913c315d	0.15104693976935382
179	0xbfd4123e573e4dfa	-0.3136134960161311
180	0xbfa5fcdca48093e6	-0.042944808083383454
181	0xbfd924100137dbbd	-0.3928260814567997
182	0xbfd6488600a5b8a5	-0.34817647994249007
183	0xbfe0a69d00a17c1c	-0.5203385364837945
184	0x3f7311241a55050c	0.004655018832012258
185	0x3fd24b83f42a7c27	0.28585909694987993
186	0xbfaee0d7610645c3	-0.06030915316945198
187	0x3fe2520654a2c329	0.5725127842943937
188	0x3f68f01a9b012ab6	0.0030441779745492238
189	0xbfd14e1a4261d32d	-0.2703920028937315
190	0x3f8a02b86e5caf5b	0.012700501316053872
191	0x3fd4d656640ab524	0.32558212060651415
192	0xbfe3773175839617	-0.6082999510951507
193	0xbfdc3ab475f411e0	-0.44108306425940036
194	0xbf6992c91a952d69	-0.003121750622687426
195	0xbfb7696187fe7992	-0.09145173616568616
196	0x3fdc6c607940b3ae	0.4441147979840093
197	0xbfd053a2ef5916dd	-0.2551047646887648
198	0xbfb5fd66e2055f78	-0.0858978559311917
199	0xbfee93fca5105242	-0.95556480635657
200	0x3fcdfa4a8880a6e7	0.2342007795826284
201	0x3fc654289cbdaf78	0.17444331792227863
202	0xbfb92cd06ac65c06	-0.09834005934531839
203	0x3fd22e079dd7b2d0	0.28405943311990445
204	0xbfc055204b34d00f	-0.12759784385855297
205	0x3fb3e8fb4635bd93	0.0777737661753604
206	0xbfd6ea6c4fe8bb97	-0.35805805019020326
207	0x3fe223ca7661965c	0.566869002545626
208	0xbfe1ad838be53fe7	-0.5524308903059109
209	0x3f8849902dbf2197	0.011859060665202743
210	0xbfad279e074dd634	-0.056942881003959306
211	0x3f986aa6182cfdd3	0.023844332910128174
212	0x3f8f45713a8c4287	0.015269169425239383
213	0xbfc73ddfd1c25da5	-0.1815757536139532
214	0x3fe98ddeb614f68b	0.7985681110655646
215	0x3fd8e1fe55d57bf3	0.38879354841441155
216	0xbfcdf39e53621142	-0.23399714538039446
217	0xbfe174a5bf60270b	-0.5454891908459286
218	0xbfc5566baf4893bb	-0.16669984873547414
219	0x3f9335ee413ac073	0.018760416728298823
220	0x3fe8ae2b0d360a5a	0.7712607629803856
221	0x3f9af098d46e85ad	0.02630842968540541
222	0x3fb40f2bc77a3ed1	0.07835649128014245
223	0x3fe0d5ea25a8cd58	0.5261126266035872
224	0xbf99fbc9e7efe976	-0.025374560147591173
225	0xbfd68ac1f98f5bf2	-0.35221909876912527
226	0xbf8e1dba414eb8f2	-0.014705138319041276
227	0x3fcf16b491c5477b	0.2428804122706046
228	0xbfd29bae034da8c5	-0.2907519371280041
229	0x3f910e2a361c6ee0	0.01665559726016752
230	0xbfe471906ed476c6	-0.6388628163001264
231	0xbfe265b45d7a085e	-0.5749151063648801
232	0xbfafe49e3611530d	-0.06229109201436787
233	0x3fd9443053f144b7	0.39478691289429996
234	0x3fbd31c813582f06	0.1140408560970024
235	0x3fc5b2d1f99b46fb	0.16951965987987436
236	0xbfde2241fab22c22	-0.47084092599897265
237	0x3f942a3134f484fa	0.0196922005244504
238	0xbfda3b45b3601a02	-0.4098676921570644
239	0xbfb3089a4552e161	-0.0743500155684891
240	0xbfb436248570fed6	-0.07895115144583129
241	0xbfc4bc63c0548651	-0.16199919596788218
242	0xbfe7cd1e9e0b465a	-0.7437890135572147
243	0x3fe167d741684feb	0.5439258840074194
244	0x3fbd02836e0e2b75	0.1133196014108487
245	0xbfd624eb981594c6	-0.34600343563063196
246	0x3fdcfcb3777a813a	0.4529236475737154
247	0xbfe41f47dc175482	-0.6288184450774141
248	0xbfc15c86c4642922	-0.13563618268410332
249	0x3fd4b69191926b26	0.3236431047059106
250	0xbfda856cd7d7d553	-0.4143936260073435
251	0xbfe78331d48d1c3b	-0.734764971865736
252	0xbfa529b16a57898f	-0.04133371756667536
253	0xbfc27a7d4652a22e	-0.14436307843904345
254	0x3fdc7f11b2e73b75	0.44525568457623105
255	0xbfdcacee149b71d8	-0.4480548096887822
